…
        "id": "B2hciKOaAvLO",
        "outputId": "061bb74c-39d6-4637-e1b2-5a40c85e2e64"
      },
      "source": [
        "cifar10_model.summary()\n"
      ],
      "execution_count": null,
      "outputs": [
        {
          "output_type": "stream",
          "text": [
            "Model: \"sequential\"\n",
            "_________________________________________________________________\n",
            "Layer (type)                 Output Shape              Param #   \n",
            "=================================================================\n",
            "conv2d (Conv2D)              (None, 32, 32, 32)        896       \n",
            "_________________________________________________________________\n",
            "conv2d_1 (Conv2D)            (None, 32, 32, 32)        9248      \n",
            "_________________________________________________________________\n",
            "max_pooling2d (MaxPooling2D) (None, 16, 16, 32)        0         \n",
            "_________________________________________________________________\n",
            "conv2d_2 (Conv2D)            (None, 16, 16, 64)        18496     \n",
            "_________________________________________________________________\n",
            "conv2d_3 (Conv2D)            (None, 16, 16, 64)        36928     \n",
            "_________________________________________________________________\n",
            "max_pooling2d_1 (MaxPooling2 (None, 8, 8, 64)          0         \n",
            "_________________________________________________________________\n",
            "flatten (Flatten)            (None, 4096)              0         \n",
            "_________________________________________________________________\n",
            "dropout (Dropout)            (None, 4096)              0         \n",
            "_________________________________________________________________\n",
            "dense (Dense)                (None, 128)               524416    \n",
            "_________________________________________________________________\n",
            "dense_1 (Dense)              (None, 10)                1290      \n",
            "=================================================================\n",
            "Total params: 591,274\n",
            "Trainable params: 591,274\n",
            "Non-trainable params: 0\n",
            "_________________________________________________________________\n"
          ],
          "name": "stdout"
        }
      ]
    },
    {
      "cell_type": "code",
      "metadata": {
…
